backend/trained_model_better.pth (torch, 58829 bytes, 40 tensors)

fc1.weight f4 [128, 50]
0	0x3ebc9d00	0.36838531
1	0xbe14eba7	-0.14543019
2	0xbcb2d11d	-0.021828229
3	0x3e89d184	0.2691766
4	0x3eadff51	0.33983853
5	0x3f0bc22b	0.5459315
6	0x3f9e7d16	1.2381923
7	0xbccd95a3	-0.025095766
8	0xbe048eb9	-0.1294507
9	0x3f147c7c	0.5800245
10	0x3f3458b3	0.70447844
11	0xbe88af12	-0.26696068
12	0xbe51ecc0	-0.20500469
13	0x3e889324	0.2667476
14	0x3e8ae3d3	0.2712694
15	0x3eca0a92	0.3946119
16	0xbf19e880	-0.6012039
17	0x3e9bc46e	0.304233
18	0xbbe55cbf	-0.0069995816
19	0x3e7de09b	0.24792711
20	0x3e759fe7	0.23986779
21	0x3e89cc15	0.26913515
22	0x3d956b73	0.07295885
23	0xbdeac2dd	-0.114629485
24	0x3d9b8db0	0.07595384
25	0xbeaebc89	-0.34128216
26	0xbda5f8b8	-0.0810408
27	0x3ce833e6	0.02834506
28	0x3e2200b6	0.15820584
29	0xbd89fdf1	-0.067378886
30	0xbe714c81	-0.2356434
31	0xbebf6558	-0.37382007
32	0x3df39ab1	0.118947394
33	0xbd8d68c7	-0.0690475
34	0x3da7cab9	0.08192963
35	0xbebe1556	-0.37125653
36	0x3eed7e6d	0.46385518
37	0x3e50e886	0.204012
38	0xbb476948	-0.0030427743
39	0x3d99c442	0.07508136
40	0xbe873735	-0.26409307
41	0xbd5f6d42	-0.054547556
42	0x3de7bbcb	0.113151155
43	0x3d8558a5	0.06511048
44	0x3de09d2f	0.109674804
45	0x3e8fbf29	0.2807553
46	0x3e1cd050	0.1531384
47	0xbd62005e	-0.05517613
48	0xbe51ef2c	-0.20501393
49	0x3dfa4375	0.12219898
50	0x3ea2377b	0.31682953
51	0x3eb2bf0d	0.34911385
52	0x3e3ded16	0.18547472
53	0x3d36a4cd	0.04459076
54	0xbdd12ed1	-0.10214008
55	0xbf1caa03	-0.6119692
56	0xbf1da71d	-0.6158312
57	0x3dea1809	0.114303656
58	0xbc2b4606	-0.010453707
59	0xbd0ba0df	-0.034088966
60	0xbf74e4cd	-0.9566162
61	0x3e7f6997	0.24942623
62	0xbf065f54	-0.5248921
63	0xbeaf40cf	-0.34229133
64	0xbc6f49c8	-0.014604993
65	0x3efe5978	0.49677634
66	0x3ef5d4a8	0.48013806
67	0x3ee6416e	0.44971794
68	0x3e252673	0.16127948
69	0xbef0b062	-0.4700957
70	0xbdd423e9	-0.10358412
71	0xbecd6704	-0.40117657
72	0x3c5d2d9b	0.013499643
73	0xbd35d7a1	-0.044395093
74	0x3cfe4f0d	0.031043554
75	0x3f0084cd	0.5020264
76	0x3e86f84a	0.26361305
77	0xbcc28f5a	-0.023749996
78	0x3de59c40	0.11211443
79	0x3d950de8	0.07278043
80	0x3f2d86e4	0.6778395
81	0xbe2c1583	-0.16805081
82	0xbdb475af	-0.08811509
83	0xbe802d08	-0.25034356
84	0x3cc99151	0.024605425
85	0xbdd7192c	-0.10502848
86	0xbe3baf64	-0.18328625
87	0x3b1bc569	0.0023768789
88	0x3dca950f	0.09891712
89	0x3f31bf54	0.6943257
90	0x3f2d04e9	0.6758562
91	0x3e826ff1	0.2547603
92	0x3dec2bf1	0.11531819
93	0x3b61249c	0.0034354096
94	0xbda8ebaf	-0.08248078
95	0xbe4c923d	-0.1997766
96	0xbdf6c1e6	-0.12048702
97	0x3f445220	0.7668781
98	0x3f2d1110	0.6760416
99	0x3e025365	0.12727125
100	0x3e3c7fbf	0.18408106
101	0xbe0b16dd	-0.1358294
102	0xbe9155be	-0.2838573
103	0x3de6dad2	0.112722054
104	0xbeed0adf	-0.46297356
105	0x3e77f0ac	0.24212903
106	0x3f44f8a6	0.7694191
107	0x3e065021	0.13116504
108	0x3c368898	0.011140965
109	0x3f33f3e2	0.7029401
110	0xbed27350	-0.411036
111	0x3ba88ce2	0.0051437477
112	0xbd415cc0	-0.047207594
113	0x3ef375c6	0.47550792
114	0xbea73da9	-0.3266423
115	0xbe9565a4	-0.29179108
116	0xbf1132d0	-0.5671816
117	0x3f1351b4	0.57546544
118	0xbb458a52	-0.003014226
119	0xbe4c08fc	-0.19925302
120	0x3ddec946	0.108782336
121	0xbe9629e8	-0.29328847
122	0x3e19c026	0.15014705
123	0x3d48dc3f	0.049038168
124	0x3d6d9c3b	0.05801032
125	0xbe08e893	-0.1336997
126	0xbeb6e087	-0.35718176
127	0xbdcc2ed5	-0.0996987
128	0xbdc8e2e5	-0.09808902
129	0x3dcc1e83	0.09966757
130	0xbf136e39	-0.5759006
131	0x3daeb070	0.085297465
132	0xbdcd1e77	-0.10015576
133	0xbda36ddc	-0.079799384
134	0x3dd5a0ed	0.10431085
135	0x3d16e0de	0.036835544
136	0x3e0162cf	0.12635349
137	0x3e3816e3	0.1797748
138	0xbd004ec2	-0.03132511
139	0xbb9095dc	-0.004412396
140	0xbd49c0f2	-0.049256273
141	0xbe7e0831	-0.24807812
142	0x3d8432e7	0.06455021
143	0x3dd8d1fd	0.10586927
144	0x3e45f9df	0.193336
145	0xbda47c9f	-0.08031582
146	0xbdb3cc88	-0.087792456
147	0x3e2574ae	0.16157791
148	0x3d827b2c	0.063711494
149	0x3e036127	0.1283003
150	0x3ebdf496	0.37100667
151	0x3e2a521e	0.16632888
152	0x3d4df84e	0.05028563
153	0xbe188ea3	-0.14898162
154	0x3ec56e47	0.38560697
155	0x3e3dd26e	0.18537304
156	0x3f12b940	0.5731392
157	0xbd6f7008	-0.05845645
158	0x3e58aeae	0.21160385
159	0x3e9238d8	0.28558993
160	0xbdd3fa4c	-0.10350475
161	0x3e375b56	0.17905936
162	0xbda980ce	-0.08276521
163	0x3e6043b7	0.21900831
164	0xbca22491	-0.019792827
165	0xbe07018f	-0.13184188
166	0xbecde3fc	-0.40213
167	0x3f6244d0	0.8838625
168	0x3ee30336	0.44338387
169	0xbc1f6667	-0.009729004
170	0x3e9c36dd	0.30510607
171	0xbb6728a6	-0.003527203
172	0x3e14816f	0.145025
173	0x3ecc67b9	0.39922884
174	0xbd87f70c	-0.06638917
175	0x3d956d9b	0.07296296
176	0x3e0b4cc9	0.1360351
177	0xbdd0ba48	-0.1019178
178	0x3d3ceb9f	0.046123143
179	0xbdb4fb2d	-0.088369705
180	0x3d9abaa7	0.07555132
181	0x3e815a42	0.25264174
182	0xbcdad190	-0.026711255
183	0x3d53e733	0.05173416
184	0xbd7eec4c	-0.06223707
185	0x3da0dc91	0.0785457
186	0xbdd6ff93	-0.10497966
187	0x3da29b11	0.07939733
188	0x3e4fe15d	0.20300813
189	0x3f16c4f7	0.58894295
190	0x3e95dbd5	0.2926928
191	0x3bede4fc	0.007259963
192	0x3e7de54a	0.24794498
193	0xbe323609	-0.17403425
194	0xbc896dad	-0.01677593
195	0xbdc7c17a	-0.097536996
196	0x3dd17e77	0.102291994
197	0x3f19840b	0.59967107
198	0x3df46b7f	0.11934566
199	0x3cab5ef2	0.020919297
200	0xbef408ba	-0.47662908
201	0xbdcb36df	-0.09922575
202	0x3e3ad67e	0.18245885
203	0xbd4c734c	-0.049914643
204	0xbdbe8095	-0.09301869
205	0xbe2af3aa	-0.16694513
206	0xbf743cf0	-0.95405483
207	0x3d4a1049	0.049331937
208	0x3b1b160f	0.002366427
209	0xbf13156d	-0.5745457
210	0x3f25b625	0.64731055
211	0xbe280ac0	-0.16410351
212	0x3eb5c2be	0.3550014
213	0xbee9e425	-0.45681873
214	0xbe9c2323	-0.30495557
215	0xbe470925	-0.19437082
216	0x3f500a47	0.8126568
217	0xbf2cabc6	-0.67449605
218	0xbe03b140	-0.12860584
219	0x3d8c1ba0	0.068412066
220	0xbf035223	-0.51297206
221	0x3e85a312	0.26100975
222	0xbe2475b3	-0.16060524
223	0xbe976a4d	-0.2957329
224	0x3c2d618f	0.010582342
225	0xbda8f0c1	-0.08249045
226	0x3e122170	0.14270568
227	0x3e11f53b	0.14253704
228	0x3db8929d	0.09012339
229	0xbe0a3d70	-0.13499999
230	0x3f493381	0.78594214
231	0xbd4d7dc9	-0.050168786
232	0xbd0b370c	-0.033988044
233	0x3e60bbcb	0.21946637
234	0xbd86a2a8	-0.06573993
235	0x3e0c186b	0.1368119
236	0x3de5bdae	0.11217819
237	0xbe8bab45	-0.27279106
238	0xbe37ff80	-0.1796856
239	0xbf7f4a66	-0.997229
240	0xbf06e711	-0.5269633
241	0x3cf10377	0.029420597
242	0xbe3b2a2d	-0.18277808
243	0xbe9c1c11	-0.30490163
244	0xbe33e61b	-0.17568247
245	0xbde0d33c	-0.1097779
246	0xbdc00716	-0.093763515
247	0xbf8294da	-1.0201676
248	0xbf187ff5	-0.59570247
249	0xbe0fd59a	-0.14046326
250	0x3f2abac9	0.6669126
251	0x3da4a1ad	0.0803865
252	0xbe3ed3ed	-0.18635531
253	0x3e5de22d	0.2166831
254	0xbe0af418	-0.13569677
255	0xbe7fb28d	-0.24970455

fc1.bias f4 [128]
0	0xbc55cbb0	-0.013049051
1	0x39dd002a	0.00042152527
2	0x3d54b6e9	0.05193225
3	0x3dafcdad	0.085841514
4	0xbccd07f5	-0.025028208
5	0xbbf73574	-0.007544214
6	0xbde6fe71	-0.112789996
7	0xbcc0d0c0	-0.02353704
8	0xbe05f3a7	-0.13081227
9	0xbd47ebde	-0.048808925
10	0x3dc6cc7f	0.09706973
11	0xbe2902c1	-0.16504957
12	0xbd50f4a1	-0.051014546
13	0xbdfe1dd0	-0.1240803
14	0xbd01281f	-0.031532403
15	0x3d1db933	0.038506698
16	0xba08fbb8	-0.00052254973
17	0x3bbd4599	0.005776119
18	0x3d5a0808	0.053230315
19	0xbd6fceab	-0.058546703
20	0x3d905e90	0.07049286
21	0xbbf7bfc1	-0.0075607006
22	0x3c842be9	0.01613422
23	0x3d720670	0.05908817
24	0xbb0acaab	-0.0021177928
25	0xbd9afcd5	-0.07567755
26	0x3d786d08	0.060650855
27	0x3dd22cc8	0.102624476
28	0x3d146997	0.03623351
29	0xbe001c3b	-0.12510769
30	0x3e004316	0.12525591
31	0xbe1eaca6	-0.15495548
32	0x3bca181f	0.0061674262
33	0x3e0bfc52	0.13670471
34	0x3e394048	0.18090928
35	0x3d91facf	0.07127916
36	0xbc4da9bf	-0.012552678
37	0xbe15c047	-0.14624129
38	0xbda59f53	-0.08087029
39	0x3e021aec	0.12705582
40	0xbb9680ae	-0.0045929765
41	0x3d749ee6	0.05972185
42	0xbdb3a37b	-0.08771416
43	0x3d99c882	0.07508947
44	0xbcac009c	-0.020996384
45	0x3d87a5bf	0.066234104
46	0x3c947ba1	0.018125357
47	0xbd3a139b	-0.045428853
48	0xbe124c4a	-0.14286914
49	0x3dcf1972	0.10112275
50	0xbe3fcb37	-0.18729864
51	0x3e5efc33	0.21775894
52	0xbd76a149	-0.060212407
53	0xbe279d43	-0.16368584
54	0x3dcf37e3	0.101180814
55	0xbcce66bf	-0.025195478
56	0x3d3f606a	0.046722807
57	0xbd760741	-0.06006551
58	0x3db78412	0.08960737
59	0xbcfe4b17	-0.031041665
60	0x3e1c5ae7	0.15269051
61	0xbd827644	-0.06370214
62	0xbd8b723c	-0.06808898
63	0xbd825260	-0.06363368
64	0xbce2d1ee	-0.027687993
65	0x3e0be5f0	0.13661933
66	0x3d8b1ccc	0.06792602
67	0xbe48dfe3	-0.19616656
68	0xbda84df2	-0.08217992
69	0x3d6c3b44	0.057673708
70	0xbdbe5d3c	-0.09295127
71	0xbe117f4e	-0.14208719
72	0xbca2e7cb	-0.019885918
73	0xbe27d2bc	-0.16388983
74	0x3e0cc1e1	0.13745834
75	0x3d6255d0	0.05525762
76	0x3dc87921	0.097887285
77	0xbdea52de	-0.11441587
78	0x3d75d9c8	0.060022146
79	0xbda20a22	-0.07912089
80	0xbda441b2	-0.08020343
81	0xbe19ca8e	-0.15018675
82	0xbdc35e4d	-0.09539471
83	0x3de9cf2e	0.114164695
84	0xbdd2ff56	-0.10302608
85	0xbdea7061	-0.11447216
86	0x3d83483a	0.064102605
87	0x3e47a56b	0.19496696
88	0xbd9b1322	-0.07572009
89	0xbdd87e6e	-0.105709895
90	0x3e01b808	0.12667859
91	0x3e09bbf8	0.1345061
92	0xbd3ad31c	-0.045611486
93	0xbd9a3746	-0.07530074
94	0x3e17ae16	0.14812502
95	0xbe0604ff	-0.13087843
96	0x3e413dd5	0.18871243
97	0x3dce3829	0.100693054
98	0xbc566325	-0.013085161
99	0x3d510b43	0.05103613
100	0xbc73f440	-0.014889777
101	0xbdcae74b	-0.09907397
102	0x3b3f5f8b	0.0029201235
103	0x3ca37c59	0.019956755
104	0xbe184601	-0.14870454
105	0x3de65288	0.1124621
106	0x3dd082e1	0.10181213
107	0x3dc11d3f	0.094294064
108	0xbd823aa4	-0.06358841
109	0xbe14ef21	-0.14544345
110	0xbc5e0187	-0.013550169
111	0x3df0f3e3	0.11765268
112	0x3dff22b4	0.12457791
113	0xbc93cf5b	-0.01804321
114	0xbe00b989	-0.12570776
115	0x3e36e891	0.17862155
116	0x3e039838	0.12851036
117	0x3d885c68	0.0665825
118	0xbc3738e0	-0.011182994
119	0x3d0ba176	0.034089528
120	0x3caf63c9	0.021409886
121	0x3e068d24	0.13139778
122	0x3cddfb58	0.02709739
123	0x3e12bd54	0.14330035
124	0xbd810b7f	-0.06301021
125	0xbd5fbdd9	-0.054624412
126	0x3e0fbac7	0.14036094
127	0x3d7b3aa8	0.061335236

conv1.weight f4 [16, 1, 3]
0	0xbece7c1e	-0.4032907
1	0x3e39efb5	0.18157847
2	0x3ec75a91	0.38936284
3	0xbe79d8ab	-0.24399059
4	0xbed656a0	-0.41862965
5	0x3ef23fa9	0.47314194
6	0x3e75cd97	0.24004208
7	0x3ef53b97	0.47897026
8	0xbe94c336	-0.29055184
9	0xbeb534da	-0.35391885
10	0x3e75cad9	0.24003161
11	0x3ee26283	0.44215783
12	0x3e4d9e2a	0.20079866
13	0x3df7c0e4	0.12097338
14	0xbf17d80d	-0.5931404
15	0xbe8d4af3	-0.27596244
16	0xbc2485ea	-0.010041693
17	0x3ed9e07e	0.42554086
18	0xbebfca81	-0.37459186
19	0xbf0b8263	-0.5449583
20	0x3f0367ea	0.51330435
21	0xbf10de6e	-0.565894
22	0x3e2b9d00	0.1675911
23	0xbebe9a4a	-0.37227088
24	0xbe001c36	-0.12510762
25	0xbed08b4b	-0.40731272
26	0x3d914211	0.07092679
27	0xbe631177	-0.22174631
28	0x3e4242e7	0.18970834
29	0xbef69b52	-0.48165375
30	0xbeb11838	-0.3458879
31	0xbec07035	-0.37585607
32	0xbc1faeb5	-0.009746243
33	0xbf0b2e48	-0.54367495
34	0x3e48bb4b	0.19602697
35	0x3c405ed8	0.0117413625
36	0xbe88eb96	-0.26742238
37	0xbeb233b7	-0.3480508
38	0x3e924202	0.28565985
39	0x3d82e914	0.063921124
40	0xbe6143aa	-0.21998468
41	0x3e87b9bf	0.265089
42	0x3f26cf55	0.65160114
43	0xbe03ad90	-0.12859178
44	0x3c22e1e0	0.009941548
45	0xbf13be1a	-0.57711947
46	0x3e99e032	0.3005386
47	0xbf03e793	-0.5152523

conv1.bias f4 [16]
0	0x3e8bcd0f	0.27304885
1	0x3f0e327d	0.5554579
2	0xbefc951f	-0.4933252
3	0x3ea7a8d3	0.3274599
4	0xbede2303	-0.43386087
5	0xbe1b4905	-0.15164573
6	0x3f08276f	0.5318517
7	0xbf1f89d3	-0.6231968
8	0x3f31a9ff	0.6940002
9	0xbea7e2c2	-0.3279019
10	0x3e4ec1ed	0.20191164
11	0xbd90af55	-0.07064692
12	0xbede2ac7	-0.43392012
13	0x3f41fa7f	0.7577285
14	0x3e47894c	0.19485968
15	0xbe42f902	-0.19040301

bn.weight f4 [16]
0	0x3f891990	1.0710926
1	0x3f61c91c	0.88197494
2	0x3f8fcf3b	1.1235117
3	0x3f88b9f5	1.068175
4	0x3f889de0	1.067318
5	0x3f517517	0.8181929
6	0x3f7a9708	0.97886705
7	0x3f8ccff8	1.1000967
8	0x3f4a7f6d	0.79100686
9	0x3f85c3c1	1.0450364
10	0x3f6f060c	0.933686
11	0x3f874005	1.0566412
12	0x3f85d180	1.0454559
13	0x3f8b34fe	1.0875547
14	0x3f8cbf26	1.0995834
15	0x3f8cd286	1.1001747

bn.bias f4 [16]
0	0xbe7fe392	-0.24989155
1	0xbdbc9f98	-0.092101276
2	0xbe042796	-0.12905726
3	0xbe329b4d	-0.17442055
4	0xbbfe5388	-0.0077614225
5	0x3d42fb15	0.04760273
6	0xbdc9b1bd	-0.09848354
7	0x3e0ec06d	0.13940592
8	0xbe3515f9	-0.17684163
9	0x3dfe2024	0.12408474
10	0xbd961801	-0.07328797
11	0xbe305089	-0.17218222
12	0xbd33ce4b	-0.04389791
13	0xbd56c211	-0.05243117
14	0x3d3eef3e	0.046614878
15	0x3daa8c8d	0.08327589

res_block1.conv1.weight f4 [16, 16, 1]
0	0xbe044a98	-0.1291908
1	0xbd4b7801	-0.04967499
2	0x3e8f0328	0.27932096
3	0xbe9fcf3c	-0.31212795
4	0xbe2af1aa	-0.1669375
5	0xbe88ce61	-0.26719955
6	0x3db0871e	0.086195216
7	0xbef010c7	-0.468878
8	0xbe64093e	-0.2226915
9	0xbeab2d79	-0.3343313
10	0xbda3de06	-0.08001332
11	0x3ddde58a	0.10834797
12	0xbd80fd72	-0.06298341
13	0xbe07239a	-0.13197175
14	0x3e37f89f	0.17965935
15	0xbec46a6c	-0.38362443
16	0x3ea95911	0.33075765
17	0x3e5ba712	0.21450451
18	0xbe8c3713	-0.27385768
19	0x3e83f745	0.2577459
20	0x3e1d6be6	0.15373191
21	0x3ecae9fd	0.39631644
22	0x3e8350a4	0.2564746
23	0xbe6e3b5d	-0.23264833
24	0xbd2ce03b	-0.04220603
25	0xbd093d76	-0.03350588
26	0xbe159069	-0.1460587
27	0xbdf46ac5	-0.11934427
28	0x3d722987	0.059121635
29	0xbd6d3576	-0.057912312
30	0xbe8b3bd5	-0.27194086
31	0x3b72141f	0.0036938263
32	0x3e5955ed	0.21224184
33	0xbd90c611	-0.07069028
34	0xbdbbf2fe	-0.091772065
35	0x3c25bd8d	0.010115993
36	0x3e5b2915	0.2140239
37	0xbde25eda	-0.11053248
38	0xbd2432d2	-0.04008753
39	0xbd31f895	-0.043449957
40	0x3d4343d3	0.047672104
41	0xbe102066	-0.14074859
42	0x3c954d2a	0.018225271
43	0x3c59206c	0.013252359
44	0xbc7f3a19	-0.015577816
45	0xbf1a1879	-0.6019359
46	0xbf1707a1	-0.58996016
47	0x3e2afb66	0.16697463
48	0xbec7dc5d	-0.3903531
49	0x3c24b21b	0.010052229
50	0x3d22e912	0.039773054
51	0xbea5ba6b	-0.32368788
52	0x3e06d51c	0.13167232
53	0xbebeff9c	-0.3730439
54	0xbdabf576	-0.08396427
55	0xbec29f3c	-0.3801211
56	0xbd6cc40b	-0.05780415
57	0xbdb80adc	-0.08986446
58	0xbe1e2be0	-0.15446424
59	0xbf0578c0	-0.52137375
60	0xbd89cd19	-0.067285724
61	0xbe1da79a	-0.15395966
62	0x3dab144f	0.08353483
63	0xbc8982bb	-0.01678597
64	0xbe2c1199	-0.16803588
65	0x3d96dc4a	0.073662356
66	0xbe3d1d87	-0.18468295
67	0xbe2ca930	-0.16861415
68	0xbeb1c870	-0.34723234
69	0x3e26411a	0.16235772
70	0x3cef36ca	0.02920093
71	0xbe678f22	-0.22613195
72	0x3eb061fb	0.34449753
73	0xbde400ab	-0.1113294
74	0x3d17694d	0.036965657
75	0xbe4ce8dd	-0.20010705
76	0x3ea59852	0.32342774
77	0x3c074670	0.00825654
78	0xbea53fbb	-0.32275185
79	0xbddf4cd1	-0.109033234
80	0x3ec733fb	0.38906845
81	0xbc82b844	-0.015957005
82	0x3e80060c	0.25004613
83	0x3ec51453	0.3849207
84	0x3d87d827	0.06633025
85	0xbc607d37	-0.013701729
86	0x3e0ebee6	0.1394001
87	0xbe219293	-0.1577857
88	0xbe6de7ff	-0.2323303
89	0xbe24b9db	-0.16086523
90	0x3e0bbe83	0.13646893
91	0x3e9c6da0	0.30552387
92	0xbc20fe58	-0.009826265
93	0xbed1d370	-0.40981627
94	0x3e3e8ed8	0.18609178
95	0x3e616e2c	0.22014683
96	0xbe557074	-0.20843679
97	0x3dfbcd3b	0.12295004
98	0x3e84abfb	0.2591246
99	0xbdbd9fe9	-0.09259016
100	0x3e6e2119	0.23254813
101	0xbd7fc3cb	-0.062442582
102	0x3c99ae00	0.018759727
103	0xbe46bf39	-0.19408883
104	0x3eaa3c16	0.33248967
105	0xbe999f4a	-0.3000434
106	0x3e977dd4	0.29588187
107	0xbddf6fc6	-0.10909991
108	0x3e925b35	0.2858521
109	0x3e264964	0.16238934
110	0x3e367922	0.17819646
111	0xbec059dd	-0.3756856
112	0x3e88c2b0	0.26711035
113	0xbe65e6b5	-0.22451289
114	0xbf012d40	-0.5045967
115	0x3e4b6f64	0.19866711
116	0x3b11711c	0.0022192663
117	0xbd60056f	-0.054692682
118	0xbe8acee6	-0.27110976
119	0xbe8fc1b4	-0.2807747
120	0x3e2658d2	0.1624482
121	0x3df2e095	0.11859242
122	0x3e6a7047	0.22894393
123	0x3e2f339c	0.17109531
124	0x3cd47e92	0.02593926
125	0xbe4826dc	-0.19546074
126	0x3d63f627	0.05565467
127	0xbe6fd295	-0.23420174
128	0x3eb67bd8	0.3564136
129	0x3e2e83cc	0.17042464
130	0xbe7e8598	-0.2485565
131	0x3ec0b27b	0.3763617
132	0x3a92f1e4	0.0011211005
133	0x3e73d73d	0.23812576
134	0xbd54cd7d	-0.05195378
135	0xbdbf2e47	-0.093349986
136	0x3dc340f7	0.095338754
137	0xbed76d84	-0.4207574
138	0xbd1ff550	-0.039052308
139	0x3e89ad02	0.26889807
140	0x3dbd8eea	0.09255774
141	0xbdd0fe3b	-0.102047406
142	0x3e3ab5e0	0.18233442
143	0xbdbb8c4d	-0.091576196
144	0xbe962a41	-0.29329112
145	0xbebd2c55	-0.36947885
146	0xbe2ff2ba	-0.17182437
147	0xbe2b08cd	-0.16702576
148	0xbcd7b677	-0.026332123
149	0xbe0f7827	-0.14010678
150	0xbe99eaa1	-0.3006182
151	0x3cdb5b77	0.026777012
152	0xbcc26355	-0.023729006
153	0xbe890485	-0.2676126
154	0x3d82d3cc	0.06388053
155	0xbea966b1	-0.3308616
156	0xbec7bebb	-0.39012703
157	0xbeb4d1bc	-0.35316265
158	0xbe327437	-0.17427145
159	0x3da9bc30	0.08287847
160	0x3df2fb9d	0.11864398
161	0xbe3591c7	-0.17731391
162	0x3bc7baaf	0.0060952525
163	0x3dcbccd8	0.0995118
164	0x3e507129	0.20355667
165	0xbc41e4af	-0.011834308
166	0xbeabb104	-0.3353349
167	0x3eb5e7e1	0.35528472
168	0x3c373472	0.0111819375
169	0x3e6b7619	0.2299427
170	0xbc8bcd74	-0.017065741
171	0x3e8c21c3	0.27369508
172	0x3bb095a6	0.0053889332
173	0xbdc07172	-0.09396638
174	0x3d938045	0.072022
175	0x3f33499e	0.70034206
176	0x3c354bd5	0.011065443
177	0xbe8318a0	-0.25604725
178	0xbd85a37a	-0.06525321
179	0xbec9c24e	-0.39406055
180	0x3e129fd5	0.14318784
181	0xbe181935	-0.14853366
182	0xbea99ebd	-0.3312892
183	0x3d69e728	0.057105213
184	0xbebdf1dd	-0.3709859
185	0x3e8cf757	0.27532455
186	0x3b9ca862	0.004780815
187	0xbdbd93a1	-0.092566736
188	0xbec42d8f	-0.38316008
189	0x3dbf4e6f	0.09341132
190	0xbb80aaf8	-0.003926631
191	0x3e9a7ad3	0.30171832
192	0x3d896a69	0.06709749
193	0xbe55c53e	-0.20876023
194	0xbc3c702c	-0.011501353
195	0xbdbc800d	-0.09204111
196	0xbc6b7f41	-0.014373601
197	0x3e5543b1	0.20826603
198	0xbee2863f	-0.44243047
199	0xbec42119	-0.38306502
200	0x3e75db5c	0.2400946
201	0xbda00cd7	-0.07814949
202	0x3dc8e6b3	0.098096274
203	0xbea27db2	-0.31736523
204	0xbeb1ebd8	-0.34750247
205	0xbe45a1f8	-0.19300067
206	0xbe0c9e03	-0.13732152
207	0xbe21e561	-0.15810157
208	0x3d683f46	0.056700967
209	0xbdd9a437	-0.106270246
210	0x3ea73b1f	0.32662293
211	0xbc20ce17	-0.009814761
212	0x3efa2aab	0.48860678
213	0xbcf32107	-0.029678835
214	0x3e1440a5	0.14477785
215	0x3d943bf8	0.07238001
216	0xbde6cc83	-0.11269476
217	0x3e5cb8a6	0.21554813
218	0x3e0213c1	0.12702848
219	0xbcdc5035	-0.026893714
220	0xbded1ac3	-0.1157737
221	0xbbe73728	-0.0070561357
222	0x3e974919	0.29547957
223	0x3de67534	0.112528235
224	0x3e63c198	0.22241819
225	0xbe3281fa	-0.17432395
226	0xbeb98834	-0.36236727
227	0x3df9ebe2	0.12203194
228	0x3e2b1654	0.16707736
229	0x3e4231ed	0.18964358
230	0xbe19e5ac	-0.15029019
231	0xbe99381e	-0.29925627
232	0xbce25af1	-0.027631255
233	0xbd184465	-0.0371746
234	0x3dbf6b54	0.09346643
235	0xbe3704c5	-0.17872913
236	0x3cbb70a3	0.022880858
237	0xbdb7f638	-0.089825094
238	0xbe85e435	-0.2615067
239	0xbee6a194	-0.4504515
240	0x3d1f6010	0.03890997
241	0x3e1bd752	0.15218857
242	0xbe5149b7	-0.20438276
243	0xbdf910ed	-0.121614315
244	0xbdbfc547	-0.093637995
245	0x3e2185dd	0.15773721
246	0x3ea2a2c3	0.31764802
247	0xbe34ce0f	-0.1765673
248	0x3dcf54f1	0.10123623
249	0x3e9e8c32	0.30966336
250	0x3e546acc	0.20743865
251	0x3ec68826	0.38775748
252	0x3eadc21f	0.33937165
253	0x3e81cd9b	0.25352177
254	0x3c14514f	0.009052589
255	0x3e334500	0.1750679

res_block1.bn1.weight f4 [16]
0	0x3f871858	1.0554304
1	0x3f6a07cc	0.9141815
2	0x3f624414	0.8838513
3	0x3fb47758	1.4098921
4	0x3fb196c5	1.3874136
5	0x3fb91daa	1.4462178
6	0x3fa05397	1.252551
7	0x3f721f07	0.94578594
8	0x3fa39195	1.2778803
9	0x3f848b21	1.0354959
10	0x3f650f0a	0.8947607
11	0x3fa4bf3f	1.2870864
12	0x3f833879	1.0251609
13	0x3f8ec22a	1.1153004
14	0x3f93bb50	1.1541538
15	0x3f8726a5	1.0558668

res_block1.bn1.bias f4 [16]
0	0xbe0ecb15	-0.13944657
1	0xbe3604f3	-0.17775325
2	0x3e3b57ee	0.18295261
3	0xbe3e5096	-0.18585429
4	0xbab4fe80	-0.0013808757
5	0x3cc0b2e3	0.0235228
6	0x3dafbbea	0.08580764
7	0x3e5041b9	0.20337571
8	0x3db21ffa	0.08697505
9	0x3dcb4f47	0.0992723
10	0xbe530189	-0.20606054
11	0x3d78b096	0.06071528
12	0xbe0838ed	-0.13302965
13	0xbd7fc4c1	-0.0624435
14	0xbdbc1e45	-0.09185461
15	0x3dcd1a41	0.10014773

res_block1.bn1.running_mean f4 [16]
0	0xbf516666	-0.8179687
1	0x3da7f88e	0.08201705
2	0xbef3727e	-0.47548288
3	0xbf5e6fde	-0.86889446
4	0xbeea0e96	-0.45714253
5	0x3ec79a94	0.3898512
6	0x3df68e71	0.12038887
7	0xbe97ab8a	-0.2962306
8	0x3e2344bb	0.15944187
9	0xbf88e3cd	-1.0694519
10	0x3f36203b	0.7114293
11	0xbe9271ed	-0.28602543
12	0xbf49eb64	-0.788748
13	0x3f29fa8e	0.6639794
14	0xbf13e884	-0.57776666
15	0x3f304a15	0.6886304

res_block1.bn1.running_var f4 [16]
0	0x3f3d28d9	0.73890454
1	0x3f06c090	0.5263758
2	0x3ed68425	0.41897693
3	0x3f85bb4d	1.0447785
4	0x3f1b6aa9	0.60709625
5	0x3ea15c37	0.31515667
6	0x3f310fab	0.6916453
7	0x3e283c92	0.16429356
8	0x3f28a4b5	0.65876323
9	0x3f39fbdf	0.7264995
10	0x3f9f4f4c	1.2446074
11	0x3f7d0821	0.9884053
12	0x3eb0fc3a	0.34567434
13	0x3ee22f5c	0.44176757
14	0x3ea5fe1d	0.32420436
15	0x3f201f7f	0.6254806

res_block1.depthwise.weight f4 [16, 1, 3]
0	0xbd5f63a2	-0.054538377
1	0x3e0c932c	0.13728017
2	0x3f002aee	0.50065506
3	0xbe7e5d46	-0.24840268
4	0xbf534cda	-0.8253914
5	0xbe1b7bdd	-0.15183969
6	0xbf1b59d7	-0.6068396
7	0x3ec5d5f7	0.38639805
8	0xbe68eb50	-0.22746015
9	0x3eafc70d	0.3433155
10	0xbeb7174d	-0.35759965
11	0x3e8b10df	0.2716131
12	0x3ef1f572	0.47257572
13	0xbeca0317	-0.39455482
14	0xbe027bfe	-0.12742612
15	0x3f0bea8e	0.5465478
16	0xbe32be5f	-0.17455433
17	0xbe81cf2d	-0.25353375
18	0xbeea9b31	-0.45821527
19	0xbe565133	-0.20929413
20	0xbe5292d5	-0.20563824
21	0xbece41d3	-0.40284595
22	0xbf124841	-0.571415
23	0x3ee44d66	0.445903
24	0xbd65635c	-0.05600296
25	0x3ead4e74	0.33848917
26	0x3ef8db4c	0.4860481
27	0xbdc88e19	-0.09792728
28	0x3ea69ed9	0.32543066
29	0x3e0a5b54	0.13511401
30	0x3d841b88	0.06450564
31	0x3f1d1d67	0.6137299
32	0xbcaaea43	-0.020863658
33	0xbed4d66a	-0.41569835
34	0x3b3a64bc	0.002844139
35	0x3e662520	0.224751
36	0xbdb546e1	-0.0885141
37	0xbefafe2a	-0.49022037
38	0x3ee4e709	0.44707516
39	0xbf0338dd	-0.5125864
40	0x3ef00345	0.46877494
41	0x3ee5df26	0.4489681
42	0x3d866815	0.06562821
43	0x3ef32080	0.47485733
44	0xbeaee292	-0.34157234
45	0x3ed0f6fd	0.40813437
46	0x3eda98c9	0.4269469
47	0xbf121f19	-0.570787

res_block1.bn2.weight f4 [16]
0	0x3f95caf8	1.1702566
1	0x3f6b6998	0.91958
2	0x3f74a9a5	0.95571357
3	0x3f7d90e2	0.990492
4	0x3f89b9ff	1.0759887
5	0x3f603b8c	0.8759086
6	0x3f97ca75	1.185866
7	0x3f461892	0.7738124
8	0x3f76e967	0.96449894
9	0x3f810462	1.0079463
10	0x3f6ff9de	0.9374064
11	0x3f761fb7	0.96142143
12	0x3f8d89d7	1.105769
13	0x3f94548b	1.15883
14	0x3f6a8253	0.9160511
15	0x3f8805a4	1.0626721

res_block1.bn2.bias f4 [16]
0	0xbc006222	-0.007835897
1	0xbd8719c8	-0.06596714
2	0xbdfa213f	-0.122133724
3	0x3da2fd22	0.079584375
4	0x3dd83726	0.10557394
5	0x3db6c880	0.08924961
6	0xbe4805ab	-0.19533412
7	0x3d47a0c1	0.04873729
8	0xbc7b4ce1	-0.015338154
9	0xbdad5b52	-0.084646836
10	0xbe60fdb6	-0.21971783
11	0xbde77872	-0.1130227
12	0x3d06a012	0.0328675
13	0xbddd3c97	-0.10802572
14	0xbe1bea60	-0.15226126
15	0x3ddaf33c	0.106909245

res_block1.bn2.running_mean f4 [16]
0	0x3e55aa4f	0.20865749
1	0xbebbadd4	-0.36656058
2	0xbe4ff772	-0.20309237
3	0x3de972e6	0.11398868
4	0xbd011066	-0.03150978
5	0x3d878a90	0.066182256
6	0xbef4fba8	-0.47848248
7	0xbe86c3c0	-0.2632122
8	0x3ecb72bb	0.3973597
9	0x3e2cd852	0.16879395
10	0x3e433757	0.19064079
11	0xbdd1a635	-0.102367796
12	0xbd48b37c	-0.048999295
13	0x3e31aab5	0.17350276
14	0x3d9e0ee0	0.07717681
15	0x3dfbf07f	0.1230173

res_block1.bn2.running_var f4 [16]
0	0x3d785c06	0.060634635
1	0x3e8a3905	0.26996627
2	0x3e44d16c	0.19220513
3	0x3d93ab9b	0.072104655
4	0x3ea32cd9	0.31870154
5	0x3eda60f1	0.42652085
6	0x3de475f8	0.11155313
7	0x3e37a7fe	0.17935178
8	0x3e8a7415	0.2704169
9	0x3cc98219	0.024598168
10	0x3dea9a38	0.11455196
11	0x3dbba1a4	0.0916169
12	0x3d843293	0.06454959
13	0x3ed3f506	0.41397876
14	0x3db144e7	0.0865572
15	0x3ee2f5a0	0.44328022

res_block1.conv2.weight f4 [16, 16, 1]
0	0x3ef6f7cf	0.48235938
1	0x3e540bce	0.20707628
2	0x3eb0ed1f	0.3455591
3	0x3e6b7450	0.22993588
4	0x3e47eb4c	0.19523352
5	0x3dbd13fe	0.09232329
6	0xbe4059cc	-0.18784255
7	0xbe4f79fd	-0.20261379
8	0x3de1c778	0.11024374
9	0x3e5b3175	0.21405585
10	0xbd897f19	-0.06713695
11	0x3b9f4e63	0.0048616393
12	0xbe519469	-0.2046677
13	0xbea0ff9d	-0.31445017
14	0x3e1e3c8e	0.15452787
15	0x3e405599	0.18782653
16	0xbe2827c0	-0.16421413
17	0x3d6c92b3	0.05775709
18	0xbd9dcab3	-0.077046774
19	0x3de85564	0.11344412
20	0xbede8b64	-0.43465722
21	0x3e7564a3	0.23964171
22	0xbe5b5748	-0.21420014
23	0xbe0330ea	-0.12811628
24	0xbe441adf	-0.19150876
25	0xbed765ee	-0.42069954
26	0xbdd06b06	-0.10176663
27	0x3e78d43c	0.24299711
28	0xbe7dccd5	-0.24785168
29	0xbe0ba11d	-0.13635679
30	0x3dc67157	0.096895866
31	0xbe12da8f	-0.14341186
32	0x3b7451fa	0.0037280307
33	0xbdbf2250	-0.093327165
34	0x3e47c75a	0.1950964
35	0xbe80994f	-0.25116965
36	0xbdc28b80	-0.09499264
37	0xbeaeae42	-0.34117323
38	0x3e85e017	0.2614753
39	0x3d9dd8eb	0.077073894
40	0xbe243bb4	-0.160384
41	0x3e00ccff	0.125782
42	0x3d8e3d8f	0.06945335
43	0x3e4b82ac	0.19874066
44	0xbed99f0c	-0.42504156
45	0x3ed41d93	0.41428813
46	0xbd6cbc69	-0.05779687
47	0xbec9b86a	-0.3939851
48	0xbeb585cb	-0.35453638
49	0x3e50e320	0.20399141
50	0x3d80e3f4	0.062934786
51	0xbdf22aaf	-0.118245475
52	0xbddecf1a	-0.10879345
53	0xbdd61987	-0.10454088
54	0x3e4a9fc9	0.19787516
55	0x3dbfeb64	0.09371069
56	0x3e2eb043	0.17059426
57	0xbebf58e3	-0.37372503
58	0x3c308c56	0.010775646
59	0xbe44ee78	-0.19231594
60	0x3e8d88aa	0.2764333
61	0x3ed8a71c	0.42314994
62	0xbe9a5ef0	-0.30150557
63	0xbd4c3960	-0.049859405
64	0x3ec1cb5b	0.3785046
65	0xbd8a879a	-0.06764145
66	0x3ed1993d	0.40937224
67	0x3e29e4c5	0.16591175
68	0xbe186de3	-0.14885668
69	0xbe3b911c	-0.18317074
70	0xbd9755cb	-0.073894106
71	0xbb79de30	-0.0038126819
72	0xbe6f00d9	-0.23340167
73	0x3e574057	0.21020637
74	0xbd5e555c	-0.054280624
75	0x3b047f99	0.0020217656
76	0xbe786254	-0.24256259
77	0x3e20384e	0.15646479
78	0x3df9f4a8	0.122048676
79	0xbea914cf	-0.33023688
80	0xbec41516	-0.38297337
81	0x3e090d1a	0.13383904
82	0xbe4a19ee	-0.19736454
83	0xbe96863b	-0.29399285
84	0xbe917124	-0.28406632
85	0xbea27c6e	-0.31735557
86	0xbc8a6f71	-0.016898843
87	0x3e52aaf6	0.20573029
88	0x3ddb18db	0.106981
89	0x3e2f9118	0.17145193
90	0xbe1d22f2	-0.15345362
91	0x3d97d696	0.07413976
92	0xbe5d8f9c	-0.21636814
93	0xbcc315ae	-0.023814049
94	0xbe334b88	-0.17509282
95	0xbdbd521d	-0.092441775
96	0xbdd0a02c	-0.101868
97	0xbec88a5f	-0.3916807
98	0x3e3239d4	0.17404872
99	0x3ddbffb3	0.1074213
100	0x3e12ad2c	0.14323872
101	0x3df7e2d0	0.12103808
102	0x3c813d9c	0.015776448
103	0x3e4a059e	0.19728705
104	0x3d6c70e3	0.057724845
105	0xbd265588	-0.040608913
106	0xbea84675	-0.32866254
107	0x3e86942d	0.26284924
108	0x3edaaea5	0.42711368
109	0x3eaa0362	0.33205706
110	0xbdca6a83	-0.09883597
111	0xbe993588	-0.29923654
112	0x3e6337f1	0.22189309
113	0xbd80dbdb	-0.06291934
114	0xbeab6e07	-0.33482382
115	0xbe1f865b	-0.15578596
116	0xbecb4103	-0.39698038
117	0x3e1d9e78	0.15392482
118	0x3e9f9cf2	0.31174427
119	0x3b2f901d	0.002678878
120	0xbdd69c94	-0.10479084
121	0xbe185207	-0.14875041
122	0xbd13c3e5	-0.03607549
123	0x3e0145f1	0.12624337
124	0xbe353c2d	-0.17698736
125	0xbeb77c45	-0.35836998
126	0xbdd360c7	-0.10321193
127	0xbcbea0b2	-0.023269985
128	0x3e12b535	0.14326937
129	0x3e096186	0.13416108
130	0x3d24cdf3	0.04023547
131	0xbeb9bcbe	-0.3627681
132	0x3d4795a4	0.048726693
133	0xbe7408b0	-0.23831439
134	0x3ee2f7dd	0.4432973
135	0x3dcd9d91	0.10039819
136	0x3e1a5e47	0.15075026
137	0x3e8955b4	0.268232
138	0x3e15cd13	0.14629011
139	0x3e47b70f	0.19503425
140	0xbe8b4e5a	-0.27208215
141	0x3d292c86	0.041302226
142	0x3e5b83fd	0.21437068
143	0xbeb4ad16	-0.35288304
144	0xbedd6fbd	-0.43249312
145	0x3dcc3480	0.09970951
146	0xbd769097	-0.060196485
147	0x3d63dc93	0.055630278
148	0x3e2cb81a	0.16867104
149	0x3d9634e4	0.07334307
150	0x3e6dc03d	0.23217864
151	0x3e171afb	0.14756386
152	0xbe90ec15	-0.28305116
153	0xbe902db5	-0.28159872
154	0x3d7e705d	0.062118877
155	0x3e0c01a6	0.13672504
156	0x3d232453	0.039829563
157	0x3e87a98c	0.26496542
158	0x3e98712f	0.29773852
159	0xbd2cb047	-0.0421603
160	0x3d2a9fe4	0.04165639
161	0x3dffe50e	0.124948606
162	0xbe086b46	-0.13322172
163	0xbe5b429e	-0.21412131
164	0xbcdf0056	-0.02722184
165	0xbe34ad5e	-0.1764426
166	0xbefb129c	-0.49037635
167	0x3e49e364	0.19715649
168	0xbefa8612	-0.48930413
169	0xbd62cdd6	-0.05537208
170	0x3e69af62	0.2282081
171	0x3db6e00b	0.089294516
172	0xbe925c4a	-0.28586036
173	0xbe7cf190	-0.24701524
174	0x3e1e2217	0.15442692
175	0x3d8bd164	0.068270475
176	0x3e567bb4	0.20945626
177	0x3e4ec829	0.20193543
178	0xbd96caeb	-0.07362922
179	0x3e30c5a3	0.17262892
180	0xbece9ae9	-0.40352562
181	0x3e721b78	0.23643291
182	0x3eb6a20b	0.35670504
183	0x3d21bcf6	0.039486848
184	0xbe36f172	-0.17865542
185	0xbd2c5876	-0.04207655
186	0xbd3700d2	-0.044678517
187	0x3e1d32c4	0.15351397
188	0x3e9ad98e	0.30244106
189	0xbe246faf	-0.16058229
190	0x3d9ec431	0.07752264
191	0xbea7f7de	-0.32806295
192	0x3dbb388c	0.09141645
193	0x3d9fab43	0.077963375
194	0xbe53bc20	-0.20677233
195	0xbe5e710c	-0.21722811
196	0x3e95860d	0.29203835
197	0xbd0e8ae5	-0.03480043
198	0x3db2ec70	0.08736503
199	0xbe076b0e	-0.13224432
200	0x3d650297	0.055910673
201	0xbe62310c	-0.22089022
202	0x3e9fb151	0.3118997
203	0x3e79f79f	0.24410866
204	0xbd338b91	-0.043834273
205	0xbc4129a3	-0.011789712
206	0x3ea76d86	0.32700747
207	0x3ea3553e	0.31900972
208	0x3e6c2133	0.2305954
209	0xbdb87442	-0.090065494
210	0x3e5d049f	0.21583794
211	0xbec9a5cc	-0.39384305
212	0x3e98b20c	0.2982334
213	0xbe68ebc1	-0.22746183
214	0xbcb8a020	-0.022537291
215	0x3e31941d	0.17341657
216	0x3e857305	0.26064315
217	0x3da07f3d	0.07836769
218	0x3e7572bb	0.23969547
219	0xbd3fa27f	-0.046785828
220	0x3e816bcc	0.25277555
221	0xbde3c998	-0.11122435
222	0xbc98000f	-0.018554715
223	0x3e82c5d5	0.2554156
224	0xbe1081a0	-0.14111948
225	0x3e7be86d	0.24600382
226	0x3e42c937	0.1902207
227	0x3e4b9b1b	0.19883387
228	0xbe23a784	-0.15981871
229	0x3e2db237	0.16962515
230	0xbe7d400f	-0.24731468
231	0x3eaf3b5c	0.34224975
232	0x3e4bb57a	0.19893447
233	0x3e9ff2c5	0.31239906
234	0x3ea58ece	0.32335514
235	0x3eb5a400	0.35476685
236	0x3e0bc2b3	0.1364849
237	0x3d929da3	0.07158973
238	0xbe14836a	-0.14503255
239	0xbdb84cab	-0.08998998
240	0x3d661656	0.056173645
241	0xbd12ea5e	-0.03586804
242	0x3e120ac4	0.1426192
243	0x3e1c8707	0.15285884
244	0x3dd40deb	0.10354217
245	0x3e20a757	0.15688835
246	0xbec44204	-0.38331616
247	0x3e57561f	0.21028946
248	0x3e6875b0	0.22701144
249	0xbd73dfef	-0.05953973
250	0x3e4852e9	0.19562878
251	0xbdbdd723	-0.0926955
252	0xbdbb592c	-0.091478676
253	0x3e89b5bd	0.26896468
254	0xbf04b3ed	-0.51837045
255	0x3dd734f0	0.10508144

res_block1.bn3.weight f4 [16]
0	0x3f8a8780	1.0822601
1	0x3f6e7df9	0.9316097
2	0x3f4b573b	0.7942998
3	0x3f6c4f36	0.92308366
4	0x3f7a9c7b	0.9789502
5	0x3f3f3a96	0.7469877
6	0x3f82c984	1.0217748
7	0x3f83eec3	1.0307239
8	0x3f9cdb8b	1.2254499
9	0x3f46b738	0.7762332
10	0x3f84a330	1.0362301
11	0x3f848e8e	1.0356004
12	0x3f7b76f6	0.98228395
13	0x3f764150	0.9619341
14	0x3f48c64c	0.78427577
15	0x3f4c1d9c	0.7973268

res_block1.bn3.bias f4 [16]
0	0xbd8753ca	-0.06607778
1	0xbe248f92	-0.16070393
2	0xbe5f3b2d	-0.21799918
3	0xbd2f71ce	-0.042833142
4	0xbdc4d8a4	-0.096116334
5	0xbec4b8d8	-0.38422275
6	0xbdb6fafe	-0.08934592
7	0x3d58bc8e	0.052914195
8	0xbda44cfd	-0.08022497
9	0xbe6fb320	-0.23408175
10	0xbd541f28	-0.051787525
11	0xbdd8abfa	-0.10579677
12	0xbe54fc31	-0.20799328
13	0xbd17dcd7	-0.037075844
14	0xbe535e43	-0.20641427
15	0x3d37edc4	0.044904485

res_block1.bn3.running_mean f4 [16]
0	0x3f09e001	0.5385743
1	0xbf27e556	-0.65584314
2	0xbe773ba9	-0.24143852
3	0xbddf62ef	-0.10907542
4	0x3d895e61	0.067074545
5	0xbf206c4f	-0.62665266
6	0x3e8a4506	0.27005786
7	0xbee05216	-0.43812627
8	0x3e28081e	0.16409346
9	0x3da4cebc	0.08047244
10	0xbf03596d	-0.5130833
11	0x3e18313f	0.14862536
12	0x3ea12d07	0.31479666
13	0x3ee72849	0.45147923
14	0x3f0fee54	0.56223035
15	0x3e5631ae	0.20917389

res_block1.bn3.running_var f4 [16]
0	0x3eb8bb1f	0.36080262
1	0x3ed26936	0.41095895
2	0x3eabe3d8	0.33572268
3	0x3e98ca53	0.2984186
4	0x3ead4326	0.33840293
5	0x3f17bd57	0.59273285
6	0x3e6bc129	0.23022904
7	0x3edf71f8	0.4364164
8	0x3e8005a4	0.25004303
9	0x3e68ccf7	0.22734438
10	0x3e469927	0.1939436
11	0x3ebd17f8	0.3693235
12	0x3eaeb3e1	0.34121612
13	0x3f03951d	0.51399404
14	0x3e712857	0.23550545
15	0x3ed6641c	0.41873252

res_block2.conv1.weight f4 [16, 16, 1]
0	0xbe49d09a	-0.19708481
1	0xbe23576e	-0.1595132
2	0xbe74aa6c	-0.23893136
3	0x3e0bfcf0	0.13670707
4	0xbe8fc02a	-0.28076297
5	0xbe6ce936	-0.23135838
6	0xbd978184	-0.0739775
7	0x3e5f7911	0.21823527
8	0x3eac71a1	0.33680442
9	0xbe9901e7	-0.29884264
10	0xbd86a49c	-0.065743655
11	0x3e175e7a	0.14782134
12	0xbebdcf56	-0.37072247
13	0xbd7e4988	-0.062081844
14	0xbec79642	-0.38981825
15	0x3d426e4b	0.047468465
16	0x3edf83fc	0.43655384
17	0xbbcf37d9	-0.006323796
18	0xbe86d5df	-0.26335046
19	0x3daa13cd	0.08304558
20	0xbdba9c37	-0.09111827
21	0xbdff0f6e	-0.12454115
22	0xbd10e871	-0.035377923
23	0xbeb40e87	-0.35167333
24	0x3e536f10	0.20647836
25	0x3c89c07e	0.01681542
26	0x3eee024c	0.46486127
27	0x3dcfd0be	0.10147236
28	0x3e4c8398	0.19972074
29	0x3dc306c9	0.095227785
30	0x3d4c34d3	0.049855065
31	0x3e710d24	0.23540169
32	0xbdfdd2c3	-0.12393715
33	0x3e27298d	0.16324444
34	0xbee00f4f	-0.4376168
35	0xbebd19bc	-0.36933696
36	0x3e5100a7	0.20410405
37	0x3d826949	0.06367738
38	0xbec2a244	-0.38014424
39	0xbdc1b55d	-0.094584204
40	0xbe6f30f4	-0.23358518
41	0xbddd85b3	-0.10816517
42	0x3dcad3e5	0.09903697
43	0xbe52b4cf	-0.20576786
44	0xbeca3bb1	-0.39498666
45	0xbdf80126	-0.12109594
46	0x3dca40d5	0.09875647
47	0xbd3575b6	-0.04430171
48	0x3e8e821f	0.2783365
49	0x3b897f0a	0.0041960524
50	0xbeaeeaaf	-0.34163424
51	0x3e2421d1	0.16028525
52	0xbe01be2e	-0.12670204
53	0xbe2f9e19	-0.17150153
54	0xbdefe068	-0.11712724
55	0x3e92855a	0.28617364
56	0xbe92d170	-0.28675413
57	0x3e0c0611	0.13674189
58	0xbe3f4425	-0.18678339
59	0x3e3b1db4	0.1827305
60	0x3e1c570e	0.15267584
61	0xbe994edd	-0.2994298
62	0x3c8f8c18	0.017522857
63	0xbce1d8f3	-0.02756927
64	0x3d3239dd	0.043512214
65	0xbc050af8	-0.008120291
66	0x3e95f4b4	0.29288256
67	0x3e1be64b	0.15224569
68	0xbdf04f5e	-0.11733888
69	0x3d8605b6	0.06544058
70	0xbd936727	-0.07197409
71	0xbed30085	-0.41211334
72	0x3ec74ac5	0.38924232
73	0x3dc1704c	0.09445247
74	0xbe4c2cfd	-0.19939037
75	0x3e6211b4	0.22077066
76	0x3d216c2e	0.03940981
77	0x3e6d0095	0.23144753
78	0x3cffd84c	0.031231068
79	0x3e87d031	0.26526025
80	0x3ed9ac23	0.42514142
81	0xbe0d34f2	-0.13789728
82	0xbdb385c5	-0.08765749
83	0x3e826064	0.25464165
84	0x3e927f62	0.2861281
85	0x3d09e19f	0.033662435
86	0xbe0cef65	-0.13763197
87	0x3ebf8365	0.37404934
88	0x3e28d5c5	0.16487797
89	0xbe470c47	-0.19438277
90	0xbd52e918	-0.051491827
91	0x3de65dff	0.11248397
92	0x3c10e296	0.008843085
93	0x3e5bc688	0.21462452
94	0xbe5be72b	-0.21474902
95	0xbe848251	-0.25880674
96	0x3c4d02eb	0.012512903
97	0x3e5897d0	0.21151662
98	0x3df241c9	0.11828954
99	0x3e70f35b	0.23530333
100	0xbebc2f52	-0.36754853
101	0xbe69f1d5	-0.22846158
102	0xbd1599c3	-0.03652359
103	0x3efafd00	0.4902115
104	0x3e7ebd51	0.24876906
105	0x3ca7ecc0	0.020498633
106	0x3dcdcc59	0.10048742
107	0x3ed3e1d0	0.4138322
108	0xbdc8e1d7	-0.098087005
109	0xbc03d753	-0.008046943
110	0xbdabc6ef	-0.08387553
111	0xbe01e2cb	-0.12684171
112	0xbe65105b	-0.2236952
113	0xbe64fe60	-0.22362661
114	0xbe2ad9df	-0.16684674
115	0xbda49d55	-0.08037821
116	0xbe55ff99	-0.20898284
117	0xbc40369c	-0.01173177
118	0xbeed2b4e	-0.463221
119	0x3e6a7742	0.22897056
120	0xbd50caf8	-0.050974816
121	0xbd92c264	-0.07165983
122	0xbeca6cee	-0.39536232
123	0xbcab0fdd	-0.020881588
124	0xbe0ed904	-0.13949972
125	0xbeb7554f	-0.35807273
126	0xbe7eaf4e	-0.24871561
127	0xbe5722e7	-0.21009408
128	0x3cd1a4e6	0.025591325
129	0xbe8ca621	-0.27470496
130	0x3b40b7e2	0.0029406478
131	0xbe42df09	-0.19030394
132	0x3e277dd5	0.16356595
133	0xbdca8a54	-0.09889665
134	0x3ef0f324	0.47060502
135	0xbf011057	-0.5041556
136	0x3dc9f287	0.098607115
137	0x3e93370c	0.28752935
138	0xbd1947f0	-0.03742212
139	0x3e073b9e	0.13206336
140	0x3e1880d8	0.148929
141	0x3d9af6e5	0.07566623
142	0xbccf8e17	-0.025336308
143	0xbe8e3fff	-0.277832
144	0xbdda113a	-0.10647817
145	0x3d1a4bb7	0.037669864
146	0x3d29cf1b	0.041457277
147	0xbe795360	-0.24348211
148	0xbef766b9	-0.4832056
149	0xbda208e1	-0.0791185
150	0xbd526352	-0.05136425
151	0x3c0e7c94	0.008696694
152	0x3ea0f974	0.31440318
153	0x3e384c12	0.17997769
154	0x3e10ad69	0.1412865
155	0x3ee43cc2	0.44577605
156	0xbcc13ef2	-0.023589585
157	0xbe177162	-0.14789346
158	0xbdf217a2	-0.11820914
159	0xbe6681d0	-0.22510457
160	0xbde6dec5	-0.11272959
161	0xbcef9ab6	-0.029248577
162	0xbe0986be	-0.13430306
163	0xbebf13b1	-0.3731971
164	0xbee78a0c	-0.4522251
165	0xbe231a9d	-0.15928121
166	0xbc6c5557	-0.0144246435
167	0xbe0d68f2	-0.13809565
168	0x3cd4116b	0.025887212
169	0x3ceadb96	0.02866916
170	0x3dcc6784	0.099806815
171	0xbea1bf3b	-0.3159121
172	0xbeb14ea0	-0.346303
173	0xbe89a57e	-0.26884073
174	0xbe1b0003	-0.15136723
175	0xbcc20c50	-0.023687512
176	0x3e9e6130	0.30933523
177	0xbe623bf7	-0.22093187
178	0xbe8eec0a	-0.2791446
179	0x3e3a9c97	0.18223797
180	0xbe62b2a2	-0.22138456
181	0xbe9b41eb	-0.3032373
182	0x3daad50f	0.08341419
183	0xbd948fd8	-0.072539985
184	0xbe03c3ce	-0.12867662
185	0xbe027a28	-0.12741911
186	0xbef205dd	-0.47270098
187	0x3e968b03	0.29402933
188	0x3dbfcb22	0.093649164
189	0xbd90f9dd	-0.07078908
190	0xbe9f5d7a	-0.31126004
191	0xbea86b07	-0.32894155
192	0xbea91d3b	-0.33030114
193	0x3e9d1ddb	0.3068684
194	0xbd64c939	-0.055855963
195	0xbda15cdd	-0.078790404
196	0xbe9a66b7	-0.3015649
197	0x3e65e725	0.22451456
198	0xbdd70997	-0.10499876
199	0x3e810ce2	0.2520514
200	0xbdf3f896	-0.119126484
201	0xbeb32f6b	-0.34997115
202	0x3e891f9a	0.26781923
203	0xbe98eacd	-0.2986664
204	0xbb998c58	-0.0046859197
205	0xbdaeba41	-0.08531619
206	0x3b9b6a41	0.004742891
207	0xbe3d1e25	-0.1846853
208	0x3ef10b5e	0.47078985
209	0xbe52c4ed	-0.20582934
210	0x3da53bfa	0.0806808
211	0x3db301cf	0.08740579
212	0x3e22d157	0.1590017
213	0x3b972fb8	0.004613843
214	0xbe1c79ac	-0.15280789
215	0xbdbd0464	-0.09229353
216	0x3e7a667c	0.24453157
217	0x3e4be0e4	0.19910008
218	0x3eb83a6b	0.3598207
219	0xbdb34156	-0.08752696
220	0x3e7874f7	0.24263369
221	0x3d39f8fb	0.045403462
222	0x3d3d9e0a	0.046293296
223	0xbe503a5e	-0.20334765
224	0x3e45c09e	0.19311759
225	0x3da077b1	0.07835329
226	0xbd52c499	-0.05145702
227	0xbe47e1fe	-0.19519803
228	0x3e89ca48	0.2691214
229	0xbe83ca78	-0.2574041
230	0x3bf8fe97	0.007598709
231	0xbd1bb037	-0.03800985
232	0xbf076326	-0.52885664
233	0xbe2504ee	-0.16115162
234	0xbeb2adfa	-0.3489836
235	0x3e1e9c27	0.15489255
236	0x3d0f4436	0.03497716
237	0xbd27f875	-0.04100843
238	0x3e7abb8d	0.24485607
239	0xbd9f97c9	-0.077926226
240	0xbdcaaa0f	-0.09895717
241	0xbd973e55	-0.07384936
242	0x3ee01be2	0.43771273
243	0x3e70a461	0.23500206
244	0x3e9e6f98	0.30944514
245	0xbdbc97c5	-0.09208635
246	0x3d4ad4b0	0.04951924
247	0xbe80a827	-0.2512829
248	0x3dedbcdb	0.11608287
249	0x3d2cb930	0.042168796
250	0xbe13969a	-0.14412919
251	0xbe189b6e	-0.14903042
252	0xbe4989fc	-0.19681543
253	0x3d1f619c	0.038911447
254	0xbee5d995	-0.44892564
255	0xbe1a5dab	-0.15074794

res_block2.bn1.weight f4 [16]
0	0x3f6611f8	0.8987117
1	0x3f4e4962	0.80580723
2	0x3f8e4ec5	1.1117789
3	0x3f951ba3	1.1649059
4	0x3fa396da	1.2780411
5	0x3f9089fd	1.1292111
6	0x3f840561	1.0314142
7	0x3f7d2ef8	0.98899794
8	0x3f8a1f4a	1.0790799
9	0x3f7961a2	0.974146
10	0x3f51ea49	0.81998116
11	0x3fa8044b	1.312631
12	0x3f817455	1.0113627
13	0x3f92d597	1.1471432
14	0x3fb28461	1.3946649
15	0x3f9558c8	1.1667719

res_block2.bn1.bias f4 [16]
0	0x3e08b503	0.133503
1	0xbe5afde9	-0.21385922
2	0xbdc7bb00	-0.09752464
3	0x3d8915c5	0.06693605
4	0x3dad444f	0.084602945
5	0x3d0def97	0.03465232
6	0xbde14d24	-0.110010415
7	0xbe04dfc7	-0.1297599
8	0xbdfba57d	-0.12287424
9	0x3e3a9c49	0.1822368
10	0xbe76e083	-0.24109082
11	0x3d908ba5	0.07057885
12	0x3dfd77d8	0.12376374
13	0x3dc03443	0.09384968
14	0x3bc89f06	0.0061224727
15	0xbdd4578e	-0.10368262

res_block2.bn1.running_mean f4 [16]
0	0xbf497bce	-0.78704536
1	0x3f2d24ba	0.67634165
2	0xbf84432b	-1.0332998
3	0xbe269012	-0.16265896
4	0x3f00d9d1	0.5033236
5	0x3f002e16	0.5007032
6	0x3ef2fc0b	0.4745792
7	0xbfc8b29a	-1.5679505
8	0xbd81e9e9	-0.06343443
9	0xbe9fda78	-0.31221366
10	0xbfa8d31d	-1.3189427
11	0xbf6fd75f	-0.93688005
12	0xbf0dbea1	-0.55369
13	0x3f32aa32	0.6979095
14	0xbeb4347c	-0.35196292
15	0xbe5bb1d0	-0.21454549

res_block2.bn1.running_var f4 [16]
0	0x3f467b3a	0.7753178
1	0x3f57525a	0.84110034
2	0x3f5875db	0.84554833
3	0x3e9ae9d1	0.30256513
4	0x3ef80dab	0.48447928
5	0x3f1e4753	0.6182758
6	0x3eb27c7e	0.34860605
7	0x3f917fae	1.136709
8	0x3ec72803	0.38897714
9	0x3f02ac91	0.51044565
10	0x3f220a9f	0.63297457
11	0x3f66469b	0.89951485
12	0x3f95c702	1.1701357
13	0x3f052ea4	0.5202429
14	0x3ee63aac	0.44966638
15	0x3f08de1a	0.534639

res_block2.depthwise.weight f4 [16, 1, 3]
0	0x3e8f8429	0.28030518
1	0xbd4aa3cf	-0.049472626
2	0xbee99cc9	-0.4562743
3	0xbead626d	-0.33864155
4	0xbb36a413	-0.0027868792
5	0x3f10410d	0.5634926
6	0xbf13d61e	-0.5774859
7	0xbea4cf84	-0.32189572
8	0xbef14935	-0.47126165
9	0x3ebebf6a	0.37255412
10	0x3e13997b	0.14414017
11	0xbed3ae94	-0.4134413
12	0xbf0c3775	-0.5477212
13	0xbe91d746	-0.28484553
14	0x3ebb4807	0.3657839
15	0xbd56c64e	-0.05243521
16	0xbe9ada48	-0.3024466
17	0x3eb0dbf9	0.34542826
18	0x3ec08743	0.37603197
19	0x3f2265fc	0.63436866
20	0xbd9a2f6c	-0.07528576
21	0xbdd260fd	-0.10272405
22	0x3f1f02e6	0.621138
23	0x3e4ec7b8	0.20193374
24	0x3e76e343	0.24110131
25	0x3f3be64a	0.7339827
26	0xbe204e96	-0.15654978
27	0xbefbbd06	-0.4916765
28	0x3ea2fa19	0.31831434
29	0xbd94a9db	-0.0725896
30	0xbefce906	-0.49396533
31	0x3e0e5b0d	0.1390192
32	0x3f1aa7ea	0.60412467
33	0x3ee32155	0.44361368
34	0xbe45fec7	-0.19335471
35	0xbf102ee4	-0.5632155
36	0xbe018c3e	-0.12651154
37	0x3e47e449	0.19520678
38	0x3ee54c4a	0.44784766
39	0xbe42b52b	-0.19014423
40	0xbea03fa4	-0.31298554
41	0xbecc1945	-0.3986303
42	0x3ed7c301	0.42140964
43	0x3ee6a810	0.45050097
44	0x3e634b24	0.22196633
45	0xbe8908af	-0.26764438
46	0xbee6741b	-0.45010456
47	0x3f1df0fd	0.61695844

res_block2.bn2.weight f4 [16]
0	0x3f825f50	1.0185337
1	0x3f70103f	0.9377479
2	0x3f8a8135	1.0820681
3	0x3f6b03ae	0.9180249
4	0x3f56d2b1	0.8391524
5	0x3f8ece07	1.1156625
6	0x3f7a9e19	0.9789749
7	0x3f67bd0d	0.90522844
8	0x3f451b66	0.7699493
9	0x3f7d5f12	0.9897319
10	0x3f80caa8	1.0061846
11	0x3f80a715	1.0050989
12	0x3f89021e	1.0703771
13	0x3f78ac61	0.9713803
14	0x3f65d084	0.89771295
15	0x3f919a5f	1.1375235

res_block2.bn2.bias f4 [16]
0	0x3d53651a	0.05161009
1	0xbe2de9a0	-0.16983652
2	0xbaa77a9d	-0.001277763
3	0x3d938ab8	0.07204193
4	0xbe7b9791	-0.24569537
5	0xbe999160	-0.29993725
6	0x3d062804	0.032753006
7	0xbe41d2bc	-0.18928045
8	0xbe867a04	-0.26264966
9	0xbe2718e8	-0.16318095
10	0x3b984691	0.004647084
11	0x3e314e22	0.17314962
12	0x3df53e71	0.119748004
13	0x3e1c3a03	0.15256505
14	0x3dadc95d	0.084856726
15	0xbe3f9435	-0.1870888

res_block2.bn2.running_mean f4 [16]
0	0xbdc3059b	-0.095225535
1	0x3d56c355	0.052432377
2	0xbf0083b3	-0.5020096
3	0x3d4cf6ae	0.05003994
4	0xbe7f849a	-0.24952927
5	0xbc38f568	-0.011288978
6	0x3eb1d5df	0.34733483
7	0x3e6beb1c	0.23038906
8	0x3e9fe46e	0.31228966
9	0xbdead2e7	-0.11466008
10	0x3d4f305d	0.050583232
11	0xbe25330d	-0.16132756
12	0x3e817ac9	0.2528899
13	0xbed6ad8a	-0.41929275
14	0x3f194b1b	0.59880227
15	0xbd46790d	-0.048455287

res_block2.bn2.running_var f4 [16]
0	0x3d888f0c	0.06667909
1	0x3e054bec	0.13017243
2	0x3e0272ee	0.12739155
3	0x3e469aba	0.19394961
4	0x3ec4aa23	0.38411054
5	0x3dcc6641	0.09980441
6	0x3e37489d	0.17898794
7	0x3d970ca0	0.07375455
8	0x3e9362f8	0.28786445
9	0x3df96b1f	0.12178635
10	0x3d3a0339	0.04541323
11	0x3ec0649a	0.37576753
12	0x3d8f86ef	0.070081584
13	0x3e6b6634	0.22988206
14	0x3ec3282a	0.3811658
15	0x3eb4ef8b	0.35339007

res_block2.conv2.weight f4 [16, 16, 1]
0	0x3e407adb	0.18796866
1	0xbc9396c9	-0.018016236
2	0xbe3bb6ab	-0.18331401
3	0xbe807610	-0.25090075
4	0xbd04c9e0	-0.032419086
5	0xbdc8ff8f	-0.09814369
6	0xbe8cb776	-0.2748372
7	0xbe81a88d	-0.25323907
8	0x3ea6819c	0.3252076
9	0xbeb95c58	-0.36203265
10	0x3e0ceb45	0.13761623
11	0xbee16e4b	-0.4402946
12	0xbe057236	-0.1303185
13	0x3b384097	0.002811467
14	0x3e08347b	0.1330127
15	0x3e133d09	0.14378752
16	0xbe2a8d8b	-0.16655557
17	0xbe349c71	-0.17637803
18	0x3ea82cc2	0.32846648
19	0x3dda23d2	0.106513634
20	0xbd0e5616	-0.034750067
21	0x3eca7509	0.39542416
22	0xbdbea723	-0.093092225
23	0xbeeacc34	-0.4585892
24	0x3e39c068	0.18139803
25	0x3b1a2ccf	0.0023525243
26	0xbbd58626	-0.006516236
27	0xbd904f47	-0.07046371
28	0xbc0387f3	-0.008028018
29	0x3e5c57a3	0.21517806
30	0x3e4a1e65	0.19738157
31	0x3ecd0761	0.40044692
32	0xbdb4b31c	-0.08823225
33	0xbe011165	-0.12604292
34	0xbe04b3e6	-0.12959251
35	0x3e3626c8	0.17788231
36	0xbe6e2485	-0.23256119
37	0x3e406d9d	0.18791814
38	0xbed62be6	-0.41830367
39	0xbe89b68e	-0.2689709
40	0xbd44328e	-0.047899775
41	0xbdbffab1	-0.093739875
42	0xbe2137eb	-0.15743987
43	0x3c7d7f44	0.015472237
44	0xbec7ed3b	-0.3904818
45	0x3eba2ac5	0.36360756
46	0xbea0bb82	-0.31393057
47	0xbe55993f	-0.2085924
48	0x3e4c2ca3	0.19938903
49	0xbb7b174a	-0.0038313442
50	0xbddea98f	-0.108721845
51	0x3e30a984	0.17252165
52	0x3e23f785	0.1601239
53	0x3e8406cd	0.2578644
54	0x3d733cfd	0.059384335
55	0xbe0103d0	-0.1259911
56	0xbe4c5f10	-0.19958138
57	0xbdee394d	-0.11632023
58	0x3ec56ec7	0.3856108
59	0x3e3fa663	0.18715815
60	0x3c43b822	0.011945756
61	0xbea24d74	-0.31699717
62	0x3e8ef006	0.27917498
63	0x3ec96759	0.3933666
64	0xbed25a51	-0.4108453
65	0x3ec6dc5a	0.3883999
66	0xbe0f9f0e	-0.14025518
67	0x3e76adde	0.24089763
68	0x3e926c34	0.28598177
69	0x3ce6c89e	0.028171834
70	0xbe5e75e1	-0.21724655
71	0xbe1c4fcd	-0.15264817
72	0x3e31131b	0.17292444
73	0x3de983f7	0.114021234
74	0x3d8011a1	0.062533624
75	0xbceaba9e	-0.02865344
76	0x3ebb8524	0.36625016
77	0x3ae36024	0.0017347378
78	0x3df47076	0.11935513
79	0xbb311370	-0.0027019642
80	0xbe14b57b	-0.14522354
81	0xbd84cd2b	-0.06484445
82	0xbd4cdd62	-0.050015815
83	0xbe912fbc	-0.2835673
84	0xbd2f99e8	-0.042871386
85	0x3e4d8b43	0.20072655
86	0xbf1716f4	-0.590194
87	0xbd23da8a	-0.040003337
88	0x3de90e0a	0.11379631
89	0xbddca089	-0.10772807
90	0x3bf89c87	0.007587019
91	0xbef942fe	-0.48683923
92	0xbe17300b	-0.1476442
93	0x3ea7cf0f	0.3277516
94	0xbe4886a1	-0.19582607
95	0x3d7d1fab	0.06179778
96	0xbc1e3157	-0.009655318
97	0xbdd2b03b	-0.102875195
98	0xbeb7f390	-0.3592801
99	0x3c38a9df	0.011270969
100	0xbd41375b	-0.04717193
101	0x3f1133e4	0.56719804
102	0x3e5246c0	0.20534801
103	0xbe641ff1	-0.2227781
104	0xbb92f147	-0.004484329
105	0xbe466472	-0.19374254
106	0xbe117a63	-0.14206843
107	0xbda6c0f8	-0.081422746
108	0x3c99b8c8	0.018764868
109	0xbe75b563	-0.23994975
110	0xbe8a8d72	-0.2706104
111	0xbe5f57de	-0.21810862
112	0xbe7be84f	-0.24600337
113	0xbdadb5cb	-0.0848194
114	0x3ec93882	0.39300925
115	0xbdd0835d	-0.101813056
116	0x3e84a359	0.25905874
117	0xbe581a85	-0.21103866
118	0x3df2c8ef	0.11854731
119	0xbd9e034a	-0.07715471
120	0xbb8607a6	-0.0040902672
121	0x3da198f4	0.078905016
122	0xbe8dcf9a	-0.2769745
123	0xbe2feec7	-0.1718093
124	0xbe863a45	-0.2621633
125	0x3b481d67	0.0030535103
126	0x3d6202bc	0.05517839
127	0xbea65967	-0.32490084
128	0x3e1fbff6	0.15600571
129	0x3e2d2ef2	0.1691244
130	0xbd0f4c71	-0.03498501
131	0xbb84c98f	-0.004052348
132	0x3e86b070	0.26306486
133	0x3e8cd309	0.27504757
134	0xbd2c81ac	-0.042115852
135	0xbe08e3da	-0.13368168
136	0x3d2cb960	0.042168975
137	0x3dd9d852	0.10636963
138	0xbdb1644a	-0.08661707
139	0x3e4f2c7e	0.20231816
140	0x3d7653a2	0.060138352
141	0xbe334c88	-0.17509663
142	0x3d9ac5ff	0.07557296
143	0x3f0ae635	0.5425752
144	0x3e29e04c	0.16589469
145	0x3e4bf19c	0.19916385
146	0xbda87ddb	-0.0822713
147	0x3e9a7310	0.3016591
148	0x3e122071	0.14270188
149	0x3e89a13e	0.2688083
150	0x3e3ed019	0.1863407
151	0x3e1704b6	0.14747891
152	0x3e1e9186	0.154852
153	0x3e80910e	0.25110668
154	0xbe4d3aa5	-0.20041902
155	0x3e86685f	0.26251504
156	0x3e746b7d	0.23869129
157	0xbe59a335	-0.21253665
158	0x3c536d7c	0.012904521
159	0x3f0491f0	0.5178518
160	0xbde0462f	-0.109508865
161	0xbe5faa87	-0.21842395
162	0x3e6727e1	0.22573806
163	0x3e484e2b	0.19561069
164	0x3d304350	0.043032944
165	0x3e0b6ec8	0.13616478
166	0x3e232e5c	0.15935653
167	0x3da1f077	0.07907193
168	0x3d680c62	0.056652434
169	0x3e8beb04	0.2732774
170	0x3e40c915	0.18826707
171	0x3e98caf2	0.29842335
172	0xbe89842d	-0.26858655
173	0x3e15d8ba	0.14633456
174	0xbed65092	-0.41858345
175	0x3e9e39b8	0.3090341
176	0xbebb29cc	-0.36555326
177	0xbe7145ab	-0.23561732
178	0x3e488922	0.19583562
179	0xbe32f9dd	-0.17478128
180	0x3d99cd48	0.075098574
181	0x3eb24f61	0.34826186
182	0xbc119cd8	-0.008887492
183	0xbe088b08	-0.13334286
184	0xbe0db51b	-0.13838618
185	0x3eb71a20	0.3576212
186	0x3eaa5d17	0.33274147
187	0x3dd5a9c0	0.10432768
188	0xbcf5d2a9	-0.030007677
189	0x3e731bdb	0.23741095
190	0xbdf8f3b3	-0.12155857
191	0x3e586851	0.21133544
192	0xbd533782	-0.05156661
193	0xbc7e2d0b	-0.015513669
194	0xbdd87e70	-0.10570991
195	0x3e0bb2af	0.13642381
196	0xbec20584	-0.37894833
197	0x3c39c16b	0.011337618
198	0x3e096bb6	0.13419995
199	0xbe8a4919	-0.27008894
200	0xbeddaa4c	-0.4329399
201	0x3c765095	0.015033861
202	0x3e08a19e	0.13342902
203	0xbda4f6e6	-0.08054905
204	0x3ee925b9	0.45536593
205	0xbd486c99	-0.04893169
206	0xbe0f4fac	-0.13995236
207	0x3e77b897	0.24191509
208	0xbe3d89bc	-0.18509573
209	0x3ec9cc52	0.39413697
210	0xbc144f8d	-0.0090521695
211	0x3e2d75d5	0.1693948
212	0xbd46104e	-0.048355393
213	0x3e3c39f9	0.1838149
214	0xbe969891	-0.29413274
215	0xbe103be6	-0.1408535
216	0x3d86d1d1	0.06582988
217	0xbe8a1639	-0.2697008
218	0x3e1217f3	0.14266948
219	0x3d2dbee3	0.042418372
220	0x3ea63167	0.32459566
221	0x3e67d510	0.2263987
222	0x3d71e6e1	0.059058074
223	0xbeb7a8e9	-0.35871056
224	0x3eb82195	0.3596312
225	0x3e103ac6	0.1408492
226	0x3d9ef5ef	0.07761752
227	0xbea16d74	-0.3152882
228	0x3e5d9dc7	0.21642219
229	0x3d62581a	0.0552598
230	0x3d4e5561	0.050374392
231	0xbea3028b	-0.31837878
232	0xbe8d0279	-0.2754095
233	0xbe804be1	-0.2505789
234	0x3b0ca315	0.002145951
235	0x3eb2d71d	0.34929743
236	0x3ca1c33b	0.019746413
237	0xbe0aee73	-0.13567524
238	0x3ddbc0a8	0.10730106
239	0x3d3aebd5	0.045635063
240	0x3ca9a9f9	0.020710932
241	0x3e427a43	0.18991952
242	0xbed67de4	-0.41892922
243	0x3da75ed4	0.08172384
244	0x3d69f6b5	0.057120044
245	0xbe817bca	-0.25289756
246	0x3e225898	0.15854108
247	0x3e229615	0.15877564
248	0x3dca4ba1	0.09877706
249	0x3e94416d	0.28956166
250	0xbd3723c2	-0.044711836
251	0x3e64175d	0.22274537
252	0x3e809707	0.25115225
253	0xbe6853f7	-0.2268828
254	0x3b196539	0.002340628
255	0xbe821b7f	-0.25411603

res_block2.bn3.weight f4 [16]
0	0x3f6b31cc	0.9187286
1	0x3f81bd62	1.013592
2	0x3f7619ce	0.96133125
3	0x3f8e3763	1.1110653
4	0x3f468881	0.7755204
5	0x3f7898f6	0.971084
6	0x3f8f8544	1.1212544
7	0x3f5eb683	0.8699724
8	0x3f7731d5	0.9656041
9	0x3f8c9609	1.0983287
10	0x3f90455b	1.1271166
11	0x3fa9ae3d	1.3256298
12	0x3f7b0491	0.9805384
13	0x3f76c411	0.96392924
14	0x3f6becee	0.921584
15	0x3f94e35d	1.1631886
